app/src/main/ml/model.tflite (tflite, 289856 bytes, 8 tensors)

arith.constant f4 [128, 256]
0	0xb97fb81f	-0.00024387286
1	0xba206bd7	-0.0006119585
2	0x3ad05b35	0.0015896322
3	0x35a64b7e	1.2389935e-06
4	0x3a03a31b	0.0005021558
5	0x34e02534	4.175032e-07
6	0x39376004	0.00017488009
7	0xb524e155	-6.142266e-07
8	0xb9c16c79	-0.00036892647
9	0xb3db3bc5	-1.0208854e-07
10	0xb9d24009	-0.0004010203
11	0x35aee002	1.3029205e-06
12	0xb5707fb1	-8.959278e-07
13	0x31a91cbb	4.9218136e-09
14	0x35ae91e0	1.3006465e-06
15	0xb18740fd	-3.9364054e-09
16	0x3a58a2b4	0.0008263991
17	0x39d4db9e	0.0004059942
18	0x352e89a1	6.502033e-07
19	0x39ebf73d	0.000450069
20	0x391b053a	0.00014783899
21	0x35bf48a6	1.4251752e-06
22	0x3928bd38	0.00016092218
23	0x39c5db74	0.00037738273
24	0x3b077d4b	0.0020674046
25	0xb99ead59	-0.00030265262
26	0x3954ef2d	0.00020306995
27	0x353a7fba	6.9476266e-07
28	0x395a612a	0.00020826297
29	0x38d21dbb	0.00010019118
30	0xba1b00a3	-0.00059128756
31	0xb7cdfc0b	-2.4555271e-05
32	0x393f1335	0.00018222335
33	0x3a95da31	0.0011432824
34	0x3a554c3a	0.0008136664
35	0x3528cc09	6.288179e-07
36	0xb9fcaf68	-0.00048195873
37	0xb61800dc	-2.2650265e-06
38	0x36c1ed05	5.779441e-06
39	0x38d64c78	0.000102185586
40	0xb9852cb8	-0.00025401055
41	0x3a9fae90	0.0012182761
42	0x341d2948	1.4636782e-07
43	0xb8c3b87f	-9.33269e-05
44	0x35b6d3a2	1.362165e-06
45	0x39a8cdce	0.00032196793
46	0x3988e396	0.00026109506
47	0xb9c0c5d7	-0.00036768496
48	0xbafdf50e	-0.00193754
49	0x3a0f2e0c	0.00054618786
50	0x39292c6d	0.00016133646
51	0xb871cd3c	-5.7650017e-05
52	0xb8d7386e	-0.0001026251
53	0xb500d99a	-4.800037e-07
54	0xbae6af5b	-0.0017599867
55	0x33551c0c	4.9618436e-08
56	0x35e3706f	1.694554e-06
57	0xb976df90	-0.00023543672
58	0xb509c254	-5.131926e-07
59	0x324ae5d4	1.1810204e-08
60	0x35f228d8	1.8042292e-06
61	0x38e934f5	0.0001112017
62	0xbadac19d	-0.0016689781
63	0xbad72587	-0.0016414382
64	0x3a9784e6	0.0011559993
65	0xba5e287a	-0.00084746594
66	0x3359f052	5.074282e-08
67	0x32e88875	2.7070408e-08
68	0x3a7ffa76	0.00097647996
69	0xb48b19d7	-2.5909569e-07
70	0xb3e0bbcb	-1.0464972e-07
71	0x3788799f	1.6269098e-05
72	0x39aafcbc	0.00032613229
73	0xb9c0a24d	-0.00036742017
74	0x38b5dafe	8.671543e-05
75	0x39d978fe	0.00041479612
76	0x3964b591	0.00021811413
77	0x387d3125	6.036567e-05
78	0x39f775a8	0.00047199172
79	0x38c4f849	9.392255e-05
80	0x3a008f3d	0.00049041567
81	0xb5f9d768	-1.8614637e-06
82	0xba2a1b5c	-0.0006489062
83	0xb4e2d255	-4.2248817e-07
84	0x352fd2b6	6.5499205e-07
85	0xb5f130b2	-1.7970071e-06
86	0xba59153b	-0.00082810567
87	0x39b1ce58	0.0003391381
88	0x3631b009	2.6477521e-06
89	0xb399753f	-7.1459446e-08
90	0xb2d7432c	-2.505984e-08
91	0x39c54f53	0.0003763387
92	0x39f450c8	0.00046599493
93	0xb94d30be	-0.00019568481
94	0x39c4fa13	0.00037570353
95	0x348f1ae1	2.6655383e-07
96	0x32095ca5	7.9955145e-09
97	0xb58feb38	-1.0722788e-06
98	0xb31201af	-3.3994805e-08
99	0x39586e6a	0.00020640498
100	0x3a6bbdd3	0.00089928246
101	0x3954f54b	0.00020309274
102	0xb78ad382	-1.6549373e-05
103	0x39b151ed	0.0003382111
104	0xb61cbbae	-2.3355055e-06
105	0x360e9be0	2.125038e-06
106	0xba05e054	-0.0005106975
107	0x3a61aa0b	0.0008608407
108	0xb9725e93	-0.0002311415
109	0xb5346b4b	-6.721136e-07
110	0x39563c72	0.00020431148
111	0xb91e085f	-0.00015071173
112	0xb9459667	-0.00018843413
113	0x3a2162ef	0.0006156405
114	0xb46f860f	-2.230738e-07
115	0x393b0439	0.00017835283
116	0x3a141188	0.00056483643
117	0xb96eebef	-0.00022785341
118	0xb3c7cbf0	-9.3037556e-08
119	0x31e834d4	6.7580945e-09
120	0xb6c5000a	-5.871062e-06
121	0x39366ef6	0.00017398209
122	0xb4d5c94a	-3.98208e-07
123	0x3427fabe	1.5644306e-07
124	0x3983e1db	0.00025154543
125	0x36f5dbf5	7.3271754e-06
126	0x39c1cf9c	0.0003696651
127	0x39626b23	0.00021592951
128	0xb93e2fe8	-0.00018137658
129	0xb5c31360	-1.4534271e-06
130	0xb815e429	-3.573686e-05
131	0x3abd134c	0.0014425307
132	0xb938f4c8	-0.00017638796
133	0x3395c959	6.974978e-08
134	0x351e90d7	5.9070356e-07
135	0xba661705	-0.0008777234
136	0x396e96bb	0.000227536
137	0xb5bef2aa	-1.4226728e-06
138	0xbacea6b7	-0.0015766238
139	0xb8ef31c3	-0.00011405677
140	0x32005035	7.468818e-09
141	0xb213e507	-8.608601e-09
142	0xb47116ee	-2.2453216e-07
143	0xb961d351	-0.00021536394
144	0xb95f4653	-0.00021293135
145	0xb9dcd9c2	-0.00042123912
146	0xb97e6ff2	-0.0002426503
147	0x3a2c3ab9	0.00065700297
148	0xbadd2677	-0.0016872425
149	0x3938d3a8	0.00017626456
150	0xb46f02a8	-2.2259576e-07
151	0x3a1e6441	0.00060421607
152	0xba36a68c	-0.00069675664
153	0xb9dc0ad5	-0.0004196974
154	0xb3aaa59c	-7.946366e-08
155	0x395fb3cd	0.00021333918
156	0x34690abe	2.1703724e-07
157	0xb962eca0	-0.00021641189
158	0x341fc4b4	1.4879589e-07
159	0x3265479f	1.3345839e-08
160	0x39ac9026	0.00032913795
161	0x39cf24f5	0.00039509652
162	0x3a135e2a	0.00056216365
163	0x37df07c9	2.6587297e-05
164	0x3a395b2d	0.0007070776
165	0xb9313622	-0.00016900201
166	0xba59b0f1	-0.00083042594
167	0xb4df5622	-4.1599657e-07
168	0xb9dd8d5a	-0.0004225772
169	0xb8b1004d	-8.440074e-05
170	0xb4d5d760	-3.9831048e-07
171	0xba216659	-0.00061569136
172	0xba3223d2	-0.0006795499
173	0xb5b4e80e	-1.3478582e-06
174	0x384fb070	4.9516966e-05
175	0xba8f6bfd	-0.0010942217
176	0xb9e737b1	-0.00044101247
177	0x35e8fc78	1.7358825e-06
178	0x3abb88d3	0.0014307745
179	0xb5245608	-6.121995e-07
180	0xb97755c2	-0.00023587703
181	0x38ebe378	0.000112480426
182	0x39c56d34	0.0003765613
183	0x355a2e8f	8.127908e-07
184	0x396a2347	0.00022329121
185	0xb64fbe75	-3.0956264e-06
186	0x39ba3d96	0.0003552257
187	0xb58ea0a1	-1.0626574e-06
188	0x3988cc8d	0.00026092344
189	0xba14c57e	-0.00056751806
190	0xba244852	-0.000626688
191	0x3a019444	0.0004943053
192	0xb9e0b4be	-0.00042859273
193	0x381e4485	3.773395e-05
194	0xb73b609d	-1.1168563e-05
195	0x3933885b	0.00017121567
196	0xba5ea5dd	-0.00084933435
197	0xbaf1b09a	-0.0018439472
198	0x36267341	2.4803014e-06
199	0xba44ed11	-0.0007512132
200	0xb38e59cb	-6.6287235e-08
201	0xb94e93d0	-0.00019700755
202	0x3422ff2f	1.5180261e-07
203	0x3a40fc17	0.0007361783
204	0xb78eeb7f	-1.703738e-05
205	0xb3987ff8	-7.101329e-08
206	0x39d207f6	0.00040060253
207	0xba679629	-0.0008834326
208	0xb9e6e773	-0.00044041462
209	0xb9c3d961	-0.00037355258
210	0xb9663556	-0.00021954378
211	0xb69d4078	-4.6864698e-06
212	0x39b4417d	0.00034381068
213	0xb66ba167	-3.5111677e-06
214	0xb9a506f2	-0.00031476427
215	0xb9d5a4dc	-0.00040749356
216	0xb9f99345	-0.00047602705
217	0xb943739f	-0.00018639721
218	0xb4726f41	-2.257848e-07
219	0x366c894b	3.5246655e-06
220	0xb4ead5aa	-4.3741358e-07
221	0xb9836556	-0.00025061768
222	0xb588d2c5	-1.0194132e-06
223	0x38d68c20	0.000102304155
224	0xb80fa3a2	-3.424625e-05
225	0xb8d7efe6	-0.000102966835
226	0x349cac54	2.918265e-07
227	0xb97c198f	-0.00024042114
228	0xb379b23e	-5.813694e-08
229	0xb2d81acc	-2.5157895e-08
230	0xb9b2c6a0	-0.00034098793
231	0x3986acc8	0.00025687204
232	0xb603b041	-1.9623114e-06
233	0xb361bba4	-5.2557553e-08
234	0xba11c470	-0.00055605825
235	0xb4b656cf	-3.3963303e-07
236	0xb86f0b4d	-5.6992565e-05
237	0x3941dca4	0.0001848811
238	0xb8f8dd01	-0.00011866727
239	0xb9aa6d71	-0.00032506467
240	0x31a73777	4.8666453e-09
241	0x396ebb32	0.00022767184
242	0xb7b2c9b8	-2.1313186e-05
243	0xba83092d	-0.0009997241
244	0x335a5d73	5.0842072e-08
245	0xb3b5ad7b	-8.460025e-08
246	0xb91e8bde	-0.00015120159
247	0xb651d8b2	-3.126956e-06
248	0x399f03d7	0.00030329704
249	0x3a428d05	0.0007421526
250	0xb9305122	-0.00016814892
251	0x3996d718	0.00028770487
252	0xbacd4f6d	-0.001566393
253	0xb9506962	-0.00019875684
254	0xbb73da17	-0.003720885
255	0xb99594ee	-0.00028530456

arith.constant1 f4 [128]
0	0xbdbc5cf3	-0.09197416
1	0xbed5453d	-0.41654387
2	0xbccfbcc3	-0.025358563
3	0xbd7a91db	-0.061174255
4	0xbe9ba3cb	-0.30398402
5	0xbdc49902	-0.095994964
6	0xbc1944d4	-0.009354789
7	0xbedeb99d	-0.43500987
8	0xbd349ac6	-0.044092916
9	0xbd65a07a	-0.056061246
10	0x3f53b716	0.8270124
11	0xbe9b2f12	-0.3030935
12	0x3f141704	0.5784762
13	0xbef4c41e	-0.47805876
14	0xbcde509a	-0.027138043
15	0x3efcc086	0.49365634
16	0xbd62e467	-0.055393603
17	0xbdc797f7	-0.09745782
18	0xbf16c6f5	-0.58897334
19	0xbed14859	-0.4087551
20	0xbe9e5751	-0.30925992
21	0xbde6f613	-0.11277404
22	0x3f42870f	0.75987333
23	0x3f74da3c	0.956455
24	0xbd9cd98f	-0.076586835
25	0xbe053c97	-0.13011394
26	0xbd751d91	-0.05984265
27	0x3f5883a0	0.84575844
28	0xbcf5b7a0	-0.029994786
29	0x3efd6b8d	0.49496117
30	0xbe44378c	-0.19161814
31	0x3f076e3a	0.5290257
32	0xbedfa366	-0.4367935
33	0xbf0c344c	-0.547673
34	0xbcd16106	-0.02555896
35	0xbf0ce659	-0.5503898
36	0x3f31b93b	0.69423264
37	0xbd4cc14a	-0.049989022
38	0x3f2674dd	0.6502207
39	0xbcca49b4	-0.024693348
40	0xbce24e70	-0.027625293
41	0x3f525212	0.8215648
42	0xbd24dc59	-0.040249202
43	0xbd440d8c	-0.04786448
44	0xbec83735	-0.3910462
45	0xbc4926dd	-0.012277332
46	0xbe9a6c2a	-0.30160648
47	0xbda2b631	-0.079449065
48	0xbf071ec2	-0.5278131
49	0x3f5d9052	0.8654834
50	0xbebc6b3c	-0.36800563
51	0xbcd23f4d	-0.02566495
52	0x3f00103a	0.5002476
53	0xbea4a228	-0.32154965
54	0xbf00ec07	-0.5036015
55	0xbde0abb9	-0.109702535
56	0xbddf69c2	-0.109088436
57	0xbd0f7ec7	-0.035033014
58	0xbeb29d84	-0.348858
59	0x3efceadf	0.49397942
60	0x3f49c80b	0.78820866
61	0x3f252f05	0.6452487
62	0xbe339df6	-0.17540726
63	0xbc99fabb	-0.018796315
64	0xbde0e334	-0.109808356
65	0xbd955402	-0.07291414
66	0xbed12e7a	-0.4085577
67	0x3f5bbf2d	0.85838586
68	0xbee55c59	-0.44797018
69	0xbef747c1	-0.4829693
70	0xbefd8428	-0.4951489
71	0x3f2715c9	0.65267617
72	0xbe8166f9	-0.25273874
73	0xbf03f54e	-0.5154618
74	0xbe2704ad	-0.16310377
75	0x3f4aaab5	0.7916673
76	0xbee02838	-0.43780684
77	0xbd9f9631	-0.077923186
78	0x3f1d33e1	0.61407286
79	0xbf177585	-0.59163696
80	0x3f3d2a93	0.7389309
81	0xbd3506f5	-0.044196088
82	0xbcd318fd	-0.025768751
83	0xbe84d2cf	-0.25942084
84	0xbeb07a21	-0.34468177
85	0xbec55288	-0.3853953
86	0xbd939f39	-0.07208104
87	0xbf0bc2a5	-0.5459388
88	0x3f48f65a	0.785009
89	0xbf055ab8	-0.5209155
90	0xbc1e75fa	-0.0096716825
91	0x3f2145a4	0.6299689
92	0x3ee771bc	0.4520396
93	0x3f58d89b	0.84705514
94	0x3f539997	0.82656235
95	0xbd648a2d	-0.055795837
96	0xbe63c6ad	-0.22243758
97	0x3f685070	0.9074774
98	0xbe4d4207	-0.20044719
99	0x3f2ba55b	0.6704919
100	0x3f1b9b44	0.6078379
101	0xbd72cdcc	-0.059278294
102	0xbca8bd72	-0.020598147
103	0xbebf90fa	-0.37415296
104	0xbeab5635	-0.33464208
105	0xbe24e99f	-0.16104744
106	0x3f3685b0	0.7129774
107	0xbe8346ea	-0.2564004
108	0xbd43a24f	-0.04776221
109	0x3f1f1401	0.621399
110	0xbea5bb84	-0.32369626
111	0xbeafa8e9	-0.34308556
112	0x3f4c4ecb	0.7980773
113	0xbdfccb5c	-0.12343475
114	0xbd6c8978	-0.057748288
115	0x3f31c293	0.6943752
116	0x3f2c4b45	0.6730235
117	0x3f5b54b2	0.8567611
118	0xbd9ff31e	-0.07810043
119	0xbd2e6042	-0.042572267
120	0xbdff3787	-0.12461763
121	0x3f4305a9	0.7618051
122	0xbe96b355	-0.29433694
123	0xbdb407e9	-0.08790571
124	0xbd52b30f	-0.051440295
125	0xbed901a6	-0.4238407
126	0xbeb4bc94	-0.35300124
127	0xbd94a481	-0.07257939

arith.constant2 f4 [256, 128]
0	0xb8dafa62	-0.000104416875
1	0xb7a46b2e	-1.9600233e-05
2	0x39e1c160	0.0004305942
3	0x3826853d	3.9701572e-05
4	0xb9d702e4	-0.0004101015
5	0x36617e4a	3.3601123e-06
6	0xb6aabad4	-5.0881445e-06
7	0x3598a9a5	1.1374256e-06
8	0x35c98248	1.5013584e-06
9	0xba5ad201	-0.0008347333
10	0xbb8490a5	-0.0040455633
11	0x39468058	0.00018930563
12	0xb5e81a38	-1.7292978e-06
13	0xb1db3ca7	-6.3806342e-09
14	0xb60c5e96	-2.0916682e-06
15	0x351aaffd	5.762557e-07
16	0xbd555c08	-0.05208972
17	0x39ff57de	0.00048702856
18	0x342337e4	1.5200891e-07
19	0xba5977e4	-0.0008295758
20	0x35cbbeff	1.5180266e-06
21	0xb7ee3135	-2.8394725e-05
22	0x382b0a53	4.0779192e-05
23	0xb73b757a	-1.1173421e-05
24	0xb74152dd	-1.152299e-05
25	0xbce54ff6	-0.02799223
26	0xb5f3c408	-1.8161963e-06
27	0x3755ffbe	1.2755334e-05
28	0x3b75b2c1	0.0037490579
29	0xb6af5206	-5.224955e-06
30	0x37362756	1.0857204e-05
31	0x35734064	9.0618255e-07
32	0x36dd5743	6.596472e-06
33	0x3707d351	8.095828e-06
34	0x37c9bc02	2.4048615e-05
35	0x3b0990bc	0.002099081
36	0xb9423fd4	-0.0001852506
37	0x38038209	3.135394e-05
38	0xbbb2f234	-0.005461002
39	0x3a0ec677	0.00054464437
40	0xb9330bb3	-0.00017075129
41	0xb7a3371b	-1.9456775e-05
42	0x37b1c117	2.1189959e-05
43	0xb7a33476	-1.9455543e-05
44	0x38e17dbe	0.000107522574
45	0x38330fdb	4.2691692e-05
46	0xb4632847	-2.1155675e-07
47	0xb6fbc2cc	-7.5030603e-06
48	0xba5928d0	-0.00082839746
49	0x3929c722	0.00016191279
50	0x3ae89fe8	0.0017747851
51	0x391f3d8e	0.00015186353
52	0x35ada8d8	1.2938644e-06
53	0xbcbd3804	-0.023098
54	0xb7c2cbb6	-2.3221462e-05
55	0xba229c0e	-0.00062030635
56	0xb6fb9927	-7.498212e-06
57	0xb826beb6	-3.9755098e-05
58	0xb730da30	-1.0541218e-05
59	0x3f175801	0.5911866
60	0x36e55661	6.8347877e-06
61	0xb7306ad3	-1.0515289e-05
62	0xba4ee71f	-0.0007892716
63	0x390fa7e5	0.00013700088
64	0xb934cf2f	-0.0001724332
65	0x391920bf	0.00014603416
66	0x39f54e4b	0.00046788374
67	0xb7a41dc2	-1.956418e-05
68	0xb584f41e	-9.905814e-07
69	0xb5e1cba0	-1.6823069e-06
70	0x3d63cad6	0.05561336
71	0x351455a7	5.5258937e-07
72	0xb6a6e213	-4.973504e-06
73	0xb7c705d7	-2.3725368e-05
74	0xb908b9be	-0.00013039165
75	0x3a9921ac	0.0011683009
76	0xbabcd691	-0.0014407207
77	0x3ad73e4d	0.0016421765
78	0x3ce188e7	0.0275311
79	0x365e946e	3.3166975e-06
80	0x36f4162e	7.2743487e-06
81	0x3a98fade	0.0011671444
82	0x37997845	1.8295026e-05
83	0x36281393	2.5045345e-06
84	0x37c41ab6	2.3377459e-05
85	0xbb850ecd	-0.0040606023
86	0xba08614b	-0.0005202486
87	0xb911484f	-0.00013855215
88	0xba0d6236	-0.0005393358
89	0xb7deface	-2.6581252e-05
90	0x3abfa7a6	0.0014622107
91	0x373a0edb	1.1089923e-05
92	0xb9809edc	-0.00024532422
93	0x35145700	5.52609e-07
94	0x3aa45437	0.0012537305
95	0x366caaf0	3.526624e-06
96	0xbd1ab07b	-0.03776596
97	0x3703639d	7.8314015e-06
98	0x365ca7e7	3.2880287e-06
99	0xb87c00c7	-6.0082206e-05
100	0x39e0173a	0.00042741915
101	0x39920d37	0.00027857136
102	0x37a78cf4	1.9973588e-05
103	0x39c89767	0.00038259776
104	0xba18e682	-0.0005832688
105	0x38c1d365	9.2423325e-05
106	0xbce47b0b	-0.027890703
107	0xb610550e	-2.150718e-06
108	0xb7b758fe	-2.185674e-05
109	0xbb8c1310	-0.0042747334
110	0xbc8f4d66	-0.017492961
111	0xb8994c18	-7.309782e-05
112	0x3586dab7	1.0047432e-06
113	0x372a224b	1.0140774e-05
114	0x3ac12292	0.0014735034
115	0xb88a2dc4	-6.588877e-05
116	0x3686c28f	4.016161e-06
117	0x3c5f9b01	0.013647796
118	0xbdb6a59d	-0.08918307
119	0xb93667d2	-0.00017395549
120	0x3513b7e7	5.502938e-07
121	0xb99a538a	-0.0002943541
122	0x3d3e9f7d	0.04653882
123	0xb5fd6931	-1.8880584e-06
124	0xb4b2e613	-3.3322485e-07
125	0xb8c52b09	-9.401708e-05
126	0xbd58d848	-0.052940637
127	0xb94097de	-0.00018367122
128	0x37ea096f	2.7899367e-05
129	0xb970b72c	-0.0002295642
130	0x3b349653	0.002755542
131	0x390d397c	0.00013468222
132	0x3984ded4	0.00025343022
133	0xb844aefc	-4.689301e-05
134	0x37865934	1.6015583e-05
135	0xb5156347	-5.5651293e-07
136	0xb7c59a92	-2.3556207e-05
137	0xba4a3c3e	-0.0007714665
138	0x3c9952ec	0.018716298
139	0xba27b5f8	-0.000639766
140	0xb7349770	-1.0764095e-05
141	0x341be9b0	1.4520515e-07
142	0x343ad657	1.7400576e-07
143	0x330d2df9	3.2870933e-08
144	0xbc8607c7	-0.01636113
145	0x3ad2d1ff	0.0016084312
146	0x3598ef10	1.1394459e-06
147	0xb9ad4712	-0.00033050083
148	0xb81413e8	-3.530449e-05
149	0xb9934ea3	-0.00028096614
150	0xb98c4a3d	-0.00026758193
151	0x3b31c4b3	0.0027125299
152	0x38c3c3ba	9.3347815e-05
153	0xbd7ba0f4	-0.061432794
154	0x38af2494	8.3514635e-05
155	0x36658d32	3.4205846e-06
156	0xbdbe03c0	-0.09278059
157	0xb5973f5f	-1.126882e-06
158	0x37a2de6e	1.9415482e-05
159	0x36092333	2.043508e-06
160	0xb98c1c1a	-0.00026723818
161	0x35c3dd3b	1.4593019e-06
162	0x3ae9cf51	0.0017838274
163	0xbb20c439	-0.002453102
164	0x3ac4fdd2	0.0015029258
165	0x393c2aa1	0.00017944958
166	0x3db2e4d7	0.08735054
167	0xbc31a99c	-0.010843661
168	0x3a310888	0.00067532854
169	0xb7d4491c	-2.5306414e-05
170	0xb95419f7	-0.00020227568
171	0x39049298	0.00012643111
172	0xb850caa9	-4.9779806e-05
173	0x3a117e85	0.0005550164
174	0xb5d09a98	-1.55422e-06
175	0x363c23d6	2.8035042e-06
176	0xba650c1f	-0.0008737463
177	0x3926848e	0.00015880374
178	0x3a9d4ce8	0.0012001069
179	0x386b91c5	5.6164125e-05
180	0x38e397a3	0.00010852448
181	0xbf77cebb	-0.9679982
182	0xb8b4191a	-8.5877444e-05
183	0x3a3230d5	0.00067974377
184	0x3829b640	4.0462473e-05
185	0x385ef33a	5.3155447e-05
186	0x3624a6d6	2.4535016e-06
187	0x3c82661a	0.015917826
188	0xb79804f0	-1.8122111e-05
189	0x3ad6352c	0.0016342751
190	0x3caa75c4	0.020808108
191	0xba609ae9	-0.0008568005
192	0xb9feb8c7	-0.00048584325
193	0xbb0d61d2	-0.0021573198
194	0x3bd7561e	0.0065715453
195	0x37977b03	1.8057885e-05
196	0xb80580ed	-3.1829743e-05
197	0x36666424	3.433096e-06
198	0xbcd1687a	-0.025562514
199	0x34fabda4	4.670411e-07
200	0x38157068	3.5629055e-05
201	0x38b206a4	8.488938e-05
202	0xb79e7100	-1.8887687e-05
203	0xbb7101e1	-0.0036774802
204	0xba2171ba	-0.0006158609
205	0xbb151b35	-0.0022751812
206	0x3ce0bf1c	0.027434878
207	0x35e86f43	1.7317728e-06
208	0x37ac693a	2.0552998e-05
209	0xbb49c52e	-0.0030787694
210	0x385ccc0e	5.2642128e-05
211	0x37055dfc	7.9493e-06
212	0xb898fd01	-7.2950505e-05
213	0xbd9152db	-0.070958816
214	0x38a18c0a	7.7031626e-05
215	0x3a7956a1	0.0009511505
216	0x3a746688	0.00093231397
217	0xb82f1be6	-4.1749234e-05
218	0xba9e7f5c	-0.0012092399
219	0x389a0d49	7.345767e-05
220	0x3a9dc31e	0.0012036299
221	0xb57d0887	-9.4262253e-07
222	0xbb236ed3	-0.0024937883
223	0xb65fa70f	-3.332683e-06
224	0xbdd2d72d	-0.10294948
225	0xb889f825	-6.5788896e-05
226	0xb78c26f5	-1.6707441e-05
227	0x381efd93	3.7906295e-05
228	0x3b22507d	0.0024767213
229	0x3a81418e	0.0009861456
230	0xb9eccd17	-0.00045166232
231	0xba927ed6	-0.0011176716
232	0x3a803ad4	0.0009783157
233	0x3c188ce1	0.009310932
234	0x3ba16b61	0.0049261306
235	0x36d73b7f	6.4144256e-06
236	0xb858a8d8	-5.165566e-05
237	0xbd81f3f1	-0.06345356
238	0x3e019326	0.12653789
239	0x3878d9cc	5.9330647e-05
240	0x32aa476e	1.9823087e-08
241	0x38091228	3.2680255e-05
242	0x395384f7	0.00020172061
243	0x3a793302	0.0009506197
244	0xb7230d41	-9.718643e-06
245	0xbe1845b3	-0.14870338
246	0x3e0ae1a9	0.13562645
247	0x38d96389	0.00010365906
248	0x359051f9	1.0752693e-06
249	0xba2cf91d	-0.00065984
250	0xbde91f52	-0.11382927
251	0x35f6da98	1.8392047e-06
252	0x3689f2b0	4.1111707e-06
253	0xb902c5aa	-0.00012471402
254	0x3d4ea940	0.050454378
255	0x3a1fdb3f	0.0006098039

arith.constant3 f4 [256]
0	0x3bb51820	0.0055265576
1	0x3eed5dd3	0.46360645
2	0xbd18b6a5	-0.03728356
3	0x41410c48	12.065498
4	0x3e357ed6	0.17724165
5	0x4147c229	12.484902
6	0x3eba2541	0.36356547
7	0x4148a09b	12.53921
8	0x3f0b24b6	0.5435289
9	0x414b6629	12.712441
10	0xbe3921b0	-0.18079257
11	0x41469bab	12.413005
12	0x41512f86	13.074102
13	0x41475759	12.458825
14	0x413dd825	11.86527
15	0x413fa7c1	11.978456
16	0xbe0a2b13	-0.13492994
17	0x3e52fa73	0.20603351
18	0x413e7461	11.903413
19	0x3e8d1ecc	0.2756256
20	0x3c3cd1f8	0.01152467
21	0x4148ecb3	12.557788
22	0x3db0c97f	0.08632182
23	0x3effc742	0.4995671
24	0x3ec6d297	0.38832542
25	0x3ec578c2	0.38568693
26	0x3eca6f22	0.39537913
27	0x41448d73	12.2845335
28	0xbdbbe908	-0.091753066
29	0x3cfe0692	0.031008992
30	0x3ed436d7	0.4144809
31	0xbc1be02f	-0.009513899
32	0x3e49d5f1	0.19710518
33	0xbe0304fc	-0.1279487
34	0xbe5119fa	-0.20420066
35	0x4148aa14	12.541523
36	0x3e8d3bb5	0.27584615
37	0x41405fce	12.02339
38	0x41443884	12.263798
39	0x3e768adf	0.24076413
40	0x3ea72f4b	0.3265327
41	0xbda7ae19	-0.08187503
42	0x4146db37	12.428519
43	0x3ee05fbe	0.43823045
44	0x4147f70c	12.497814
45	0x3ed80931	0.42194512
46	0x3ee66fb9	0.45007113
47	0x3ee8cf62	0.4547072
48	0x3ec5b023	0.38610944
49	0xbdd41a03	-0.10356524
50	0x3ea64c95	0.32480302
51	0xbdcfedc8	-0.10152775
52	0xbe8045fa	-0.25053388
53	0x413c5e05	11.772954
54	0x3e984850	0.2974267
55	0x41518ace	13.096388
56	0x4148ed14	12.55788
57	0x3e97e337	0.2966554
58	0x413fdc73	11.991321
59	0x414c5ceb	12.772685
60	0x41449836	12.287161
61	0x3d91138e	0.07083808
62	0xbda0b15c	-0.078463286
63	0xbe366cbb	-0.17814915
64	0xbe08e8a0	-0.1336999
65	0xbd0755b3	-0.033040714
66	0x413d8036	11.8438015
67	0x414fe34a	12.9929905
68	0x3d78dd4f	0.06075793
69	0x414d3a4e	12.826735
70	0x413f8bbe	11.971617
71	0x3e89c605	0.2690889
72	0x3d559682	0.05214549
73	0xbcb3d0b3	-0.021950101
74	0x3e8f397e	0.2797355
75	0x3edfb796	0.43694752
76	0xbe28c4e5	-0.1648136
77	0x3e897bd4	0.26852286
78	0x3effdb42	0.49971968
79	0x3edb161a	0.427903
80	0x3e93fe5a	0.28904992
81	0x414abde6	12.671362
82	0x3db38b0c	0.087667555
83	0x41499673	12.599231
84	0x4148772e	12.529097
85	0x41583011	13.511735
86	0xbd802f98	-0.06259078
87	0x3ef862b2	0.485128
88	0x4154fa64	13.311131
89	0x41478856	12.470785
90	0x414fa9d7	12.978965
91	0x3eabe9ee	0.33576912
92	0xbe0eb843	-0.13937478
93	0x3eb1133c	0.34584987
94	0x3d7c50ce	0.0616005
95	0x414b62cb	12.711619
96	0x41486665	12.524999
97	0x414520ab	12.320476
98	0x413aad0d	11.667249
99	0x3dffdbca	0.12493093
100	0xbd818d6a	-0.06325801
101	0xbcab3c4c	-0.020902775
102	0xbb9acb72	-0.0047239596
103	0xbd7a47cd	-0.06110363
104	0x414aa413	12.665057
105	0x41381162	11.504244
106	0x3d4d93d2	0.0501898
107	0xbbe11763	-0.006869243
108	0xbd13d4b8	-0.036091536
109	0x414b5e23	12.710483
110	0x3e955673	0.29167518
111	0x3ead7d22	0.3388453
112	0x3ed923a5	0.42410007
113	0x3ed7f4ca	0.42178947
114	0x414a0c18	12.627953
115	0xbcd5c0f9	-0.026092993
116	0x3d0386c4	0.032110944
117	0x3e0c2740	0.13686848
118	0x4146b134	12.4182625
119	0x414d8f60	12.847504
120	0x413a199a	11.63125
121	0x3a911574	0.0011069016
122	0x41490edc	12.566128
123	0x41477d89	12.468148
124	0xbdb77e2d	-0.08959613
125	0x41546adf	13.276092
126	0xbd35b157	-0.044358578
127	0x3eddfcf6	0.43357056
128	0x3e7b3db2	0.24535254
129	0x413e67b1	11.900315
130	0x3ef4a966	0.4778549
131	0x3eb8c604	0.36088574
132	0xbd7c677a	-0.06162212
133	0x4142bc26	12.170935
134	0x4144c688	12.29847
135	0xbd95d249	-0.07315499
136	0x3ea06aa5	0.31331363
137	0x41489e67	12.538672
138	0x3ee65dc0	0.449934
139	0x3eff1be5	0.4982597
140	0x414e293d	12.885068
141	0x414f088b	12.939586
142	0x414b1447	12.692451
143	0x3e887eed	0.26659337
144	0x3e83ee18	0.2576759
145	0x3e5a9a5d	0.21347947
146	0x3e9188e0	0.2842474
147	0x3eed9661	0.46403793
148	0x3e409cd8	0.18809831
149	0x3ee20f5e	0.4415235
150	0x41549c5e	13.288176
151	0x3ef593cd	0.47964326
152	0xbdd2a967	-0.10286217
153	0x3eb39e3a	0.35081655
154	0x4154a0da	13.28927
155	0x3e96ad9e	0.29429334
156	0x414da004	12.851566
157	0x3e9ae34f	0.30251548
158	0x414e771a	12.904078
159	0x414e3192	12.887102
160	0x3f01b82e	0.5067166
161	0x3e603eb6	0.21898922
162	0xbe200cc7	-0.15629874
163	0x3e4b7524	0.19868904
164	0xbdf19bc1	-0.11797286
165	0x3ea66df5	0.32505766
166	0x3cdef95f	0.027218519
167	0x414a2a89	12.635385
168	0x3e94698c	0.28986776
169	0x3e0bb869	0.13644566
170	0x414b9af8	12.725334
171	0x3ec2c47b	0.38040528
172	0x3f10e593	0.566003
173	0x414a2577	12.634147
174	0x3dd059ea	0.101734
175	0xbe618715	-0.22024186
176	0x3eeafaca	0.45894462
177	0x41480b2d	12.502728
178	0x3e6683ca	0.22511211
179	0x4152459b	13.1419935
180	0x3ea29c8f	0.3176007
181	0x3e271d2d	0.16319723
182	0x3f0537ac	0.52038074
183	0x41431fa7	12.195228
184	0x3e659413	0.22419767
185	0x414b13c9	12.69233
186	0x3eab6b70	0.33480406
187	0x4149a71e	12.6033
188	0x3eff0e4b	0.49815592
189	0x3e90accc	0.28256834
190	0x3eb754d1	0.35806897
191	0x3d43f1d9	0.047838066
192	0x3ecc9c6b	0.39963087
193	0x3ee4871a	0.44634324
194	0x41478520	12.470001
195	0x3c9b5058	0.01895921
196	0xbd52cd3a	-0.05146525
197	0xbe83c322	-0.25734812
198	0x4148fe4d	12.562085
199	0x3eec2dbd	0.46128646
200	0x4147c36d	12.485211
201	0x3e63c135	0.22241671
202	0x4156e8c8	13.431831
203	0x3e964ebb	0.29356942
204	0x3dea6fcb	0.11447104
205	0x414691ea	12.410624
206	0xbd919249	-0.0710798
207	0x3e966c54	0.29379523
208	0xbda7949e	-0.08182643
209	0xbdb1f28a	-0.08688839
210	0x3f03c220	0.51468086
211	0x414c462d	12.767133
212	0xbe451462	-0.19246057
213	0x414987e2	12.5956745
214	0x3e95f364	0.29287255
215	0x3eb0013d	0.34375945
216	0x3e509a42	0.20371345
217	0xbddec5eb	-0.108775936
218	0x4144a133	12.289355
219	0x41478324	12.469517
220	0x4151ae8c	13.105114
221	0x3e91d9ed	0.28486577
222	0x41381706	11.505621
223	0xbd82943b	-0.06375929
224	0x3e8ae663	0.27128896
225	0x3f06bcab	0.52631634
226	0x4150659a	13.024805
227	0xbe3c22bd	-0.18372627
228	0x4141a3fd	12.102536
229	0x414d6f84	12.8397255
230	0x3ed69e5c	0.41917694
231	0xbdc98c33	-0.09841194
232	0x414865fc	12.524899
233	0x41381207	11.504401
234	0x3ea1d828	0.31610227
235	0x414b9e48	12.726143
236	0xbda3687a	-0.07978912
237	0x3ca74a18	0.020421073
238	0xbdddb15a	-0.10824843
239	0x3ec162d2	0.37770706
240	0x41435746	12.208807
241	0x3eb6e442	0.35721022
242	0xbe7f1d63	-0.24913554
243	0xbce26575	-0.02763627
244	0x413f423b	11.95367
245	0x41406fda	12.0273075
246	0xbd89ac86	-0.06722359
247	0x413f5827	11.959022
248	0x3ea32c64	0.31869805
249	0x3ec5b65d	0.38615695
250	0x3ec36796	0.38164967
251	0x3e0020ee	0.12512562
252	0xbd3e6eef	-0.046492513
253	0x3e7a2c9c	0.2443108
254	0xbe4ff139	-0.20306863
255	0x3ec385a2	0.3818789

arith.constant4 f4 [15, 128]
0	0xbbf78f01	-0.007554889
1	0xbe70d70c	-0.23519534
2	0x3e826357	0.25466415
3	0xbd5c0487	-0.053715255
4	0xbe7217ff	-0.23641966
5	0xbd4a0f0a	-0.04933075
6	0xbe6a5e8d	-0.22887631
7	0xbead3006	-0.338257
8	0x3e7d3756	0.2472814
9	0x3e8f36c8	0.27971482
10	0xbf066ae2	-0.5250684
11	0xbe7132f4	-0.23554593
12	0xbf1ff08a	-0.6247641
13	0xbe87f02a	-0.26550418
14	0xbcbabda2	-0.022795502
15	0x41048266	8.281836
16	0x3da9bbd6	0.0828778
17	0xbe1f7bfc	-0.1557464
18	0xbdbb1a90	-0.09135926
19	0x3e94bc34	0.29049838
20	0xbed424c6	-0.41434306
21	0xbd959978	-0.073046625
22	0xbf0674ea	-0.52522147
23	0xbf22564e	-0.6341294
24	0x3e6810e9	0.226627
25	0x3d9df5e7	0.07712918
26	0x3d682622	0.05667699
27	0xbeff6ff7	-0.4989011
28	0x3d400248	0.046877176
29	0xbf0f9b89	-0.560967
30	0xbe913438	-0.28360152
31	0xbf28e64b	-0.659764
32	0xbeabefdf	-0.33581445
33	0x3e6f0236	0.23340687
34	0x3d29e0be	0.041474096
35	0xbeb6087a	-0.35553342
36	0xbf369802	-0.71325696
37	0xbc902be9	-0.017599063
38	0xbf02db91	-0.5111628
39	0xbc457076	-0.012050739
40	0x3d02adbc	0.031903967
41	0x3f0b82ad	0.5449627
42	0x3d19476b	0.037421625
43	0xbcd372ed	-0.025811637
44	0xbeb728f3	-0.3577343
45	0x3d0d4fd2	0.03449995
46	0xbe76ff2a	-0.24120775
47	0xbb8e7b7a	-0.0043482156
48	0xbeb7b39d	-0.35879222
49	0x3ed23024	0.41052353
50	0xbe99f94b	-0.30073008
51	0x3d1c393c	0.03814052
52	0xbec8ba0f	-0.3920445
53	0xbe80ebfb	-0.2518004
54	0xbe74b64a	-0.23897663
55	0xbeaa26f2	-0.33232838
56	0xbe931960	-0.28730297
57	0x3d851531	0.064981826
58	0xbe87a48b	-0.26492724
59	0xbf1dad4f	-0.6159257
60	0xbf132cc9	-0.5749021
61	0x3f389506	0.7210239
62	0xbc647de9	-0.013946035
63	0x3c5205c9	0.012818762
64	0x3d9fa6a2	0.077954546
65	0x3e9ff403	0.31240854
66	0xbe9070a8	-0.2821095
67	0x3f0d6610	0.5523386
68	0xbe9e62ed	-0.3093485
69	0xbe8ba6f8	-0.27275825
70	0x3dabfb56	0.08397548
71	0xbf10bc14	-0.56536984
72	0xbea38af3	-0.31941947
73	0xbed06e5a	-0.40709192
74	0xbe818d3f	-0.25303075
75	0xbf0158e3	-0.50526255
76	0xc08f6014	-4.4804783
77	0x3e22e36e	0.1590707
78	0xbf0befc0	-0.54662704
79	0xbe71753b	-0.23579876
80	0xbefdf803	-0.4960328
81	0x3d82d76c	0.06388745
82	0x3d0f4dd8	0.034986347
83	0xbe79d6bd	-0.24398322
84	0xbebaebb8	-0.36507964
85	0xbe5941f5	-0.21216567
86	0x3e9a62a2	0.30153376
87	0xbea00aed	-0.31258336
88	0x4105f2a1	8.371736
89	0xbed652b9	-0.41859987
90	0x3eb201a0	0.34766865
91	0x410bdf25	8.741979
92	0xbf10c6f4	-0.5655358
93	0xbee44697	-0.44585106
94	0xbf1afb4d	-0.60539705
95	0x3c9c0074	0.019043185
96	0xbebab2c3	-0.3646451
97	0xbf1c075f	-0.6094875
98	0xbead8f57	-0.33898422
99	0xbee35784	-0.44402707
100	0x41072e25	8.448766
101	0xbc49b981	-0.012312294
102	0xbe798a95	-0.24369271
103	0xbe696c4d	-0.2279522
104	0xbeb0e522	-0.34549814
105	0xbe6ebc80	-0.23314095
106	0xbedf5f78	-0.43627524
107	0xbe8e67bd	-0.2781352
108	0x3d808dc0	0.06277037
109	0x410890bd	8.5353365
110	0xbeb5e812	-0.35528618
111	0xbe9da94f	-0.30793235
112	0xbf202262	-0.62552464
113	0x3dfd3afe	0.123647675
114	0xbc4a74a9	-0.0123569155
115	0x3f035560	0.51302147
116	0xbf0f8bda	-0.5607277
117	0xbeeaa6b9	-0.45830324
118	0xbe96b95b	-0.2943829
119	0x3eb77296	0.3582961
120	0x3c95ab7b	0.018270245
121	0xbed9d5bd	-0.42545882
122	0xbe6664a0	-0.22499323
123	0x3d264220	0.040590405
124	0xbd97dfe7	-0.07415753
125	0xbeb88585	-0.36039367
126	0xbeb48612	-0.35258538
127	0x3ed48599	0.41508177
128	0x3db1018c	0.08642873
129	0xbe93b270	-0.28847075
130	0x3e697881	0.22799875
131	0xbda3cf7d	-0.079985596
132	0xbea25515	-0.31705537
133	0x3d34c61b	0.04413424
134	0xbeab9617	-0.33512947
135	0xbead70d0	-0.33875132
136	0x3dc87530	0.09787977
137	0x3eb3f44d	0.35147324
138	0x410984d9	8.5949335
139	0xbeca401f	-0.39502046
140	0xbf0103aa	-0.50396216
141	0xbe59235c	-0.21204895
142	0x3cf83dbd	0.030302877
143	0xbf11fd5e	-0.5702723
144	0x3d1c7783	0.038199913
145	0x3df0bbab	0.11754545
146	0xbe894479	-0.26810053
147	0x3ebad8f1	0.36493638
148	0xbe8c628e	-0.2741894
149	0xbdde39a0	-0.10850835
150	0x410a0a2a	8.627481
151	0xbee60c7b	-0.44931397
152	0x3d95b25f	0.07309412
153	0x3cf02e06	0.02931882
154	0x3d8138da	0.06309672
155	0xbf190c0b	-0.59784
156	0xbcd30db5	-0.025763372
157	0xbf14ca5d	-0.5812128
158	0xbe90314b	-0.28162608
159	0xbf1d301c	-0.61401534
160	0xbe1587a2	-0.14602521
161	0x3e5ef8d7	0.21774612
162	0xbbcdbdca	-0.006278728
163	0xbe953ec1	-0.2914944
164	0x41085e0e	8.522963
165	0x3d23cc0e	0.039989524
166	0xbf05ba46	-0.52237356
167	0xbb97a246	-0.004627499
168	0xbca2a606	-0.019854557
169	0x3ebcd3c6	0.3688032
170	0x3ceb720e	0.028740909
171	0x3c455e76	0.012046447
172	0xbe952e38	-0.29136825
173	0x3d09d91a	0.03365431
174	0xbe7df473	-0.24800281
175	0xba24fb70	-0.00062935706
176	0xbe85568a	-0.26042587
177	0x3eecb0d3	0.46228656
178	0xbe9ac378	-0.30227256
179	0x3d1ae399	0.03781471
180	0xbf09d6f6	-0.5384363
181	0xbebde246	-0.37086695
182	0xbecc5db8	-0.39915252
183	0xbeae36f2	-0.34026295
184	0xbeb80471	-0.3594089
185	0x3cedadab	0.029013475
186	0xbe823e49	-0.25438145
187	0xbf0fdd34	-0.56196904
188	0xbf138ff4	-0.5764153
189	0x3f0d95b8	0.5530658
190	0x3d641577	0.055684533
191	0x3ce95b15	0.028485814
192	0xbd598607	-0.053106334
193	0x3e9d7235	0.30751196
194	0xbec5288b	-0.38507494
195	0x3f0d36d9	0.55161816
196	0xbe6d29bc	-0.23160452
197	0xbe54bf1d	-0.20776029
198	0x3e34936a	0.17634359
199	0xbf1c7ad3	-0.61124915
200	0xbe705336	-0.23469242
201	0xbebadfad	-0.36498776
202	0xbe77439d	-0.24146886
203	0xbf02fadf	-0.5116405
204	0x3eb2c4cf	0.34915778
205	0x3e6258f5	0.22104247
206	0xbf15bfe1	-0.5849591
207	0xbe8a04fb	-0.26956925
208	0xbef9da34	-0.48799288
209	0xbd30cda5	-0.043164868
210	0xbd5f4a99	-0.0545145
211	0xbe350d9c	-0.17680973
212	0xbea9dbad	-0.33175412
213	0xbe926928	-0.28595853
214	0x3ea13a93	0.3149
215	0xbeb11cdc	-0.3459233
216	0xbf23668d	-0.63828355
217	0xbe78d543	-0.24300103
218	0x3e4ac511	0.19801737
219	0xbf15ba43	-0.5848734
220	0x41096a76	8.588491
221	0x4107c63e	8.485899
222	0xbf03fd3b	-0.51558274
223	0x3cb8338c	0.022485517
224	0xbe8fde9e	-0.2809953
225	0xbf18ba00	-0.59658813
226	0xbe82ece3	-0.25571355
227	0xbf01c5fe	-0.5069274
228	0xbf0578ee	-0.5213765
229	0x3d35380b	0.0442429
230	0x3c6e0b60	0.014529079
231	0xbe48f3e0	-0.19624281
232	0xbe9bb10c	-0.30408514
233	0xbebef082	-0.37292868
234	0xbf0e3a9b	-0.55558175
235	0xbe897ece	-0.26854557
236	0x3db80ea5	0.08987168
237	0xbf1f611b	-0.62257546
238	0xbe9d05e8	-0.3066857
239	0xbed9509c	-0.42444313
240	0xbef48a22	-0.47761637
241	0x3de00dc8	0.109401286
242	0x3c220e43	0.009891096
243	0x3f18c06b	0.59668607
244	0xbee95478	-0.45572257
245	0xbef87e5f	-0.48533913
246	0xbcf33f43	-0.029693251
247	0xc093d91b	-4.620252
248	0x3d659e8a	0.056059398
249	0xbf0108c1	-0.5040398
250	0xbe956ab7	-0.2918298
251	0xbd489575	-0.04897066
252	0xbceef38e	-0.02916887
253	0xbe7ba799	-0.24575652
254	0xbebd5567	-0.3697922
255	0x3e8e1019	0.27746657

arith.constant5 f4 [15]
0	0x40490b0e	3.1412997
1	0x404ccef4	3.2001314
2	0x40ba52aa	5.822591
3	0x3ecee82e	0.40411514
4	0x3f07ebf1	0.53094393
5	0x407a2d24	3.9090052
6	0x4046ecdb	3.1082065
7	0x3f028180	0.5097885
8	0x3f5dae16	0.8659376
9	0x3f07b3fb	0.53009003
10	0x40418aa3	3.0240867
11	0x3ed15604	0.40885937
12	0x3ed5f608	0.4178927
13	0x40911cfb	4.5347877
14	0x3edefe29	0.43553284

arith.constant6 f4 [128]
0	0xbc80170c	-0.01563599
1	0xbcae9d31	-0.02131519
2	0xbc4b1ab9	-0.012396508
3	0xbd089317	-0.0333434
4	0xbbf0274d	-0.007328904
5	0x3f66888f	0.9005212
6	0x3f56e8e7	0.8394913
7	0x3f55e87c	0.8355787
8	0x3f536ddb	0.825895
9	0xbd6e3eee	-0.058165483
10	0x3f4ec917	0.8077559
11	0xbd84c7a7	-0.06483393
12	0x3f5d8adc	0.8654001
13	0x3f3cfdca	0.7382475
14	0x3f52c3b0	0.82329845
15	0x3f530743	0.82432956
16	0x3f2ee63f	0.6832008
17	0xbccb694d	-0.024830485
18	0x3f52efea	0.8239733
19	0xbc3ea61a	-0.011636281
20	0x3f5e8316	0.8691877
21	0xbd2f2ec7	-0.04276922
22	0x3f5ce017	0.86279434
23	0xbce4d393	-0.027932918
24	0x3f59b247	0.85037655
25	0xbc05dbe8	-0.0081701055
26	0xbca47ad1	-0.020078095
27	0x3f5054ec	0.8137958
28	0x3f32559d	0.69661885
29	0x3f4f522a	0.8098475
30	0x3f4cfbe1	0.80071837
31	0x3f5fcf82	0.87426007
32	0xbbd4e891	-0.0064974506
33	0x3f3b6d4d	0.73213655
34	0xbcd34b50	-0.025792748
35	0xbc2c62ba	-0.010521585
36	0xbbf92c8e	-0.0076041883
37	0x3f55382e	0.8328885
38	0xbcbe1719	-0.023204373
39	0xbc7f85f6	-0.015595904
40	0xbd16c3ca	-0.036807813
41	0xbc85be95	-0.016326228
42	0x3f5a3e88	0.85251665
43	0xbbc8a511	-0.006123193
44	0xbc8be5d5	-0.017077366
45	0xbcd910d0	-0.026497275
46	0x3f527a0b	0.8221747
47	0xbc1e6d13	-0.00966956
48	0xbd039960	-0.03212869
49	0xbcad0669	-0.02112122
50	0xbcd1c3f7	-0.025606139
51	0xbbab2acd	-0.005223608
52	0x3f5afbd9	0.8554054
53	0xbd0ea6fe	-0.034827225
54	0x3f49f4f1	0.78889376
55	0xbcd869d7	-0.026417656
56	0xbb52fa30	-0.003219258
57	0x3f55a4b5	0.8345445
58	0x3f48d289	0.7844625
59	0x3e88a90c	0.26691473
60	0x3f4c1c03	0.7973024
61	0xbbddb742	-0.006766231
62	0xbd9cbb38	-0.07652897
63	0xbc057a50	-0.008146837
64	0xbdbe559e	-0.09293674
65	0xbcc03c72	-0.023466323
66	0xbd89329c	-0.06699106
67	0x3f53acee	0.82685745
68	0x3f4c0155	0.7968953
69	0xbc96cb23	-0.01840741
70	0x3f2d97a7	0.6780953
71	0x3f57af7b	0.84252137
72	0xbc17df2c	-0.009269517
73	0xbb8fd993	-0.0043899505
74	0xbd3993ca	-0.04530696
75	0xbbbf68e1	-0.00584136
76	0xbdd469ef	-0.10371768
77	0xbce60819	-0.028080033
78	0xbc93f4d7	-0.018061085
79	0x3f6556af	0.89585394
80	0x3f5a7d9a	0.853479
81	0xbc875ea3	-0.016524618
82	0x3f60a01f	0.87744325
83	0x3f581682	0.84409344
84	0xbc029bd1	-0.00797172
85	0x3e941c47	0.28927824
86	0xbcd8f184	-0.026482351
87	0xbc4651b6	-0.012104442
88	0xbd0b1e2f	-0.033964332
89	0xbc9b5cdf	-0.018965183
90	0xbc5ee2b0	-0.013603851
91	0x3f5dd4bd	0.8665274
92	0xbd1a0758	-0.03760466
93	0x3f5a7e09	0.85348564
94	0xbd09d896	-0.033653818
95	0x3f57f380	0.84355927
96	0x3c63480f	0.013872161
97	0x3f5c2653	0.8599598
98	0x3f486ff4	0.78295827
99	0xbd198938	-0.037484378
100	0xbc8f0a6c	-0.017461024
101	0xbd699aad	-0.057032276
102	0x3f5dc3eb	0.8662707
103	0xbbeafed6	-0.007171492
104	0xbcaae15c	-0.020859413
105	0xbd800cf5	-0.06252471
106	0x3e9211b7	0.2852914
107	0x3f4dd389	0.804009
108	0xbc5a7271	-0.013332949
109	0x3e925b87	0.28585455
110	0xbcfcf06f	-0.030876366
111	0xbcede605	-0.029040346
112	0x3f64dcbe	0.89399326
113	0xbb8c4b9d	-0.0042814747
114	0xbc16eaa7	-0.009211219
115	0x3f5b38e3	0.8563368
116	0x3f57d4ea	0.84309256
117	0x3c96df81	0.018417122
118	0xbb54846c	-0.0032427562
119	0xbd0d6c5c	-0.034527168
120	0x3f51b6b3	0.819194
121	0xbcc2c857	-0.02377717
122	0x3f2c4ce5	0.6730483
123	0x3f5e1459	0.867498
124	0x3f5be210	0.8589182
125	0xbd478d45	-0.04871871
126	0x3e801178	0.25013328
127	0xbba110cd	-0.004915333

sequential_1/dense_1/MatMul f4 [128, 30]
0	0x39083496	0.0001298956
1	0x391357f6	0.0001405178
2	0x38edb0a0	0.000113339396
3	0x38a6d5dd	7.955332e-05
4	0x389ec04d	7.569846e-05
5	0xb69ed530	-4.7335852e-06
6	0xb702b728	-7.791248e-06
7	0xb89ec03d	-7.569834e-05
8	0x388bdb2b	6.66886e-05
9	0xb8b997fb	-8.849796e-05
10	0xb8b99710	-8.849625e-05
11	0xb9819cb6	-0.00024721556
12	0x397b6d20	0.00023977878
13	0x3924781b	0.00015685002
14	0x39ad0283	0.00032999003
15	0x39186fab	0.00014537449
16	0xb9077081	-0.00012916514
17	0xb90770bd	-0.00012916602
18	0x390770c9	0.00012916619
19	0xb86571f6	-5.470399e-05
20	0x378c98ac	1.6760394e-05
21	0x390afd68	0.00013255107
22	0xb7426f88	-1.1589269e-05
23	0xb88bdb46	-6.668879e-05
24	0xb8b99770	-8.849695e-05
25	0x39ad0291	0.00032999043
26	0xb84e7b11	-4.922884e-05
27	0xb89ec04d	-7.569846e-05
28	0xb7426f88	-1.1589269e-05
29	0x390770b9	0.00012916596
30	0x39083496	0.0001298956
31	0xb8b997c0	-8.849753e-05
32	0xb8cbb868	-9.714143e-05
33	0xb8bc6bdb	-8.984628e-05
34	0xb8876b6e	-6.457312e-05
35	0xb9077099	-0.00012916549
36	0xb7bdf232	-2.2643337e-05
37	0x394bbb7e	0.00019429435
38	0xb9030ea8	-0.00012498593
39	0xb8cbb864	-9.71414e-05
40	0xb924781f	-0.00015685007
41	0xb83ea7a3	-4.5455654e-05
42	0x3907709b	0.00012916552
43	0x392a80f9	0.0001626051
44	0x39819cb4	0.0002472155
45	0xb89a7e26	-7.366789e-05
46	0x37fc6388	3.0087089e-05
47	0x389ec041	7.569837e-05
48	0xb907709c	-0.00012916554
49	0xb8b9972c	-8.8496454e-05
50	0x381959ad	3.656156e-05
51	0xb90afd6c	-0.00013255113
52	0x389ec041	7.569837e-05
53	0xb96274d9	-0.00021596569
54	0x38db4782	0.00010456053
55	0xb8edb0a0	-0.000113339396
56	0x39820258	0.00024797278
57	0xb8cbb860	-9.714137e-05
58	0xb89ec04d	-7.569846e-05
59	0x396274db	0.00021596572
60	0xb84e7c04	-4.9229726e-05
61	0x389ec04d	7.569846e-05
62	0xb908c5aa	-0.00013043606
63	0x389ec051	7.569849e-05
64	0x381959ad	3.656156e-05
65	0xb908349c	-0.00012989569
66	0x39083496	0.0001298956
67	0xb88bda4a	-6.668696e-05
68	0xb88bdb4f	-6.668886e-05
69	0x39804904	0.00024468463
70	0x394bbb7e	0.00019429435
71	0x38b997a0	8.84973e-05
72	0xb889dbd1	-6.573613e-05
73	0xb7fc6398	-3.0087118e-05
74	0xb8edb09c	-0.00011333937
75	0xb90770cc	-0.00012916623
76	0x394bbb76	0.00019429423
77	0xb8877b80	-6.460305e-05
78	0x37bdf232	2.2643337e-05
79	0x387d770a	6.0430764e-05
80	0xb90770b1	-0.00012916584
81	0x37fc6398	3.0087118e-05
82	0xb8b9980b	-8.849808e-05
83	0x3907705e	0.00012916463
84	0xb8b9975c	-8.84968e-05
85	0xb889dbc9	-6.573607e-05
86	0x39030ea8	0.00012498593
87	0x389ec04d	7.569846e-05
88	0xb97b2705	-0.00023951761
89	0x38b997c8	8.849759e-05
90	0xb83ea7a3	-4.5455654e-05
91	0x38e0b000	0.00010713935
92	0xb7fc6388	-3.0087089e-05
93	0x37fc6398	3.0087118e-05
94	0x388bdb13	6.668842e-05
95	0x3908349c	0.00012989569
96	0xb89a7dba	-7.3667106e-05
97	0x38d82c88	0.00010307977
98	0xb7fc6398	-3.0087118e-05
99	0x38e0affc	0.00010713932
100	0x397d9a7a	0.00024185507
101	0xb89c82ca	-7.463021e-05
102	0xb89ec03d	-7.569834e-05
103	0xb8e0affc	-0.00010713932
104	0xb96274e1	-0.0002159658
105	0x389a7e12	7.366775e-05
106	0xb89ec041	-7.569837e-05
107	0x39ad028b	0.00032999026
108	0xb867bc14	-5.5249853e-05
109	0x39030ea8	0.00012498593
110	0x38b99794	8.849721e-05
111	0xb907704c	-0.00012916437
112	0x37426f88	1.1589269e-05
113	0x383ea7a3	4.5455654e-05
114	0x38eab0a7	0.000111908936
115	0xb7da90e9	-2.6055104e-05
116	0x389ec041	7.569837e-05
117	0x389c82ca	7.463021e-05
118	0x394bbb7e	0.00019429435
119	0x37fc6398	3.0087118e-05
120	0x394bbb80	0.00019429438
121	0x394bbb78	0.00019429426
122	0x39db5bf1	0.00041839437
123	0xb89ec04d	-7.569846e-05
124	0x39337abb	0.00017116491
125	0x394bbb7e	0.00019429435
126	0x38e0b000	0.00010713935
127	0x3702b728	7.791248e-06
128	0xb7b1318c	-2.1123116e-05
129	0x389ec041	7.569837e-05
130	0xb702b728	-7.791248e-06
131	0xb907705c	-0.0001291646
132	0x396274e1	0.0002159658
133	0xb96274e1	-0.0002159658
134	0x393e09ad	0.00018123417
135	0xb90770be	-0.00012916603
136	0xb9077057	-0.00012916453
137	0x37426f88	1.1589269e-05
138	0xb88bdb27	-6.668857e-05
139	0xb874095c	-5.818285e-05
140	0xb84e7bea	-4.922963e-05
141	0x38b997d7	8.84977e-05
142	0xb89ec04d	-7.569846e-05
143	0x38edb0a0	0.000113339396
144	0xb93e09b9	-0.00018123434
145	0xb88141a1	-6.163424e-05
146	0x3907707e	0.0001291651
147	0x390770c7	0.00012916616
148	0x398048ec	0.00024468394
149	0x394bbb78	0.00019429426
150	0x38753ad0	5.8467325e-05
151	0xb9e6a454	-0.00043991453
152	0x3796e1f0	1.7986604e-05
153	0x398762a6	0.00025822705
154	0x38233854	3.8914688e-05
155	0x389ca2b8	7.4689684e-05
156	0xb8d25586	-0.0001002951
157	0xb7a4188f	-1.956176e-05
158	0xb8cac431	-9.668654e-05
159	0x38890b3d	6.534762e-05
160	0xb713cea0	-8.809991e-06
161	0x3980c682	0.00024561962
162	0x39b529d9	0.0003455419
163	0xb90ea196	-0.00013602371
164	0xb8b82eb0	-8.7825e-05
165	0xb814b1be	-3.5451485e-05
166	0xb9de94a1	-0.00042453877
167	0xb87c3c25	-6.0137496e-05
168	0xb8f7e21c	-0.00011819994
169	0x384afc72	4.839566e-05
170	0x3914e766	0.00014200583
171	0x37ccee48	2.4429653e-05
172	0x3944d5ae	0.00018771618
173	0x38c67ba8	9.4644085e-05
174	0x3918884f	0.00014546629
175	0x382fb5bc	4.1892505e-05
176	0xb75c6a88	-1.3137826e-05
177	0x36029600	1.945882e-06
178	0x38cafb3e	9.678908e-05
179	0xb8fe5752	-0.000121279285
180	0x389e4336	7.546546e-05
181	0xb8158b30	-3.5653997e-05
182	0xb7170c1c	-9.003121e-06
183	0x3851fff0	5.0067843e-05
184	0xb7bcdeaf	-2.2515042e-05
185	0xb8e547e2	-0.0001093296
186	0x3970da3e	0.00022969485
187	0xb8b6f464	-8.7239576e-05
188	0x3906f9b5	0.00012872259
189	0xb8267514	-3.968652e-05
190	0x384e8854	4.9241193e-05
191	0x391df3da	0.00015063529
192	0xb8f73bdb	-0.00011789027
193	0x38fac69e	0.00011957924
194	0x38bfe69d	9.150545e-05
195	0x3963fcb4	0.00021742546
196	0xb8bd362b	-9.022312e-05
197	0x38ea8bb1	0.00011184009
198	0xb63ab4c8	-2.7821388e-06
199	0x390d27ee	0.00013461683
200	0x38d2776e	0.00010035826
201	0xb90797c2	-0.00012931137
202	0x396de64c	0.00022687874
203	0x38d2c2c0	0.00010049855
204	0x38885986	6.5016604e-05
205	0xb9663e6c	-0.00021957763
206	0x398b8e23	0.00026618046
207	0xb8bbfa7d	-8.963512e-05
208	0x39984864	0.00029045634
209	0x38fd0b07	0.00012066034
210	0x386ac2e0	5.597144e-05
211	0x39145e44	0.00014149497
212	0xb8e91848	-0.000111148285
213	0xb7d9ff74	-2.598737e-05
214	0x392dfe7a	0.00016593366
215	0x38db991b	0.00010471252
216	0x384aec2a	4.8380498e-05
217	0xb8a6a075	-7.945384e-05
218	0xb8d3a68b	-0.00010092285
219	0xb87a4be2	-5.9675316e-05
220	0x392644a7	0.00015856569
221	0x37e28b16	2.7006066e-05
222	0xb8b0f7b5	-8.438473e-05
223	0x356d1ec0	8.833413e-07
224	0x3843ff8a	4.6729612e-05
225	0x38766bb2	5.875127e-05
226	0x3878bbb1	5.930261e-05
227	0xb8584c98	-5.1569747e-05
228	0x388f1bd7	6.823957e-05
229	0x371bda60	9.289564e-06
230	0xb86e67b2	-5.6840196e-05
231	0x38de58e0	0.00010602339
232	0xb8a347ee	-7.7858436e-05
233	0xb961b32f	-0.00021524423
234	0xb94e96cf	-0.00019701871
235	0x388ddca4	6.7645014e-05
236	0xb9087449	-0.0001301329
237	0x38bf2807	9.1150454e-05
238	0x38a85bed	8.027987e-05
239	0x38d02dc2	9.926736e-05
240	0xb83688bc	-4.3519525e-05
241	0xb89346ba	-7.02268e-05
242	0x36d6c4b8	6.400598e-06
243	0xb7bef70e	-2.2764809e-05
244	0xb7821bcc	-1.5510152e-05
245	0x37e32cb8	2.7081333e-05
246	0xb787e456	-1.6199581e-05
247	0xb79b9ee2	-1.8551425e-05
248	0xb5209a60	-5.982929e-07
249	0x3369b800	5.4416887e-08
250	0x374b6fd8	1.21257835e-05
251	0xb791e5ad	-1.7392298e-05
252	0xb7f68f60	-2.939225e-05
253	0xb7da7408	-2.6041656e-05
254	0x38460466	4.7210975e-05
255	0x369d035f	4.679357e-06
